…
  },
  {
   "cell_type": "code",
   "execution_count": 4,
   "metadata": {},
   "outputs": [
    {
     "name": "stdout",
     "output_type": "stream",
     "text": [
      "7\n",
      "outputDims 15625\n",
      "outputDims 3125\n",
      "outputDims 625\n",
      "outputDims 125\n",
      "outputDims 25\n",
      "outputDims 5\n",
      "_________________________________________________________________\n",
      "Layer (type)                 Output Shape              Param #   \n",
      "=================================================================\n",
      "dense_1 (Dense)              (None, 3)                 1007823   \n",
      "_________________________________________________________________\n",
      "batch_normalization_1 (Batch (None, 3)                 12        \n",
      "_________________________________________________________________\n",
      "dense_2 (Dense)              (None, 15625)             62500     \n",
      "_________________________________________________________________\n",
      "dense_3 (Dense)              (None, 3125)              48831250  \n",
      "_________________________________________________________________\n",
      "dense_4 (Dense)              (None, 625)               1953750   \n",
      "_________________________________________________________________\n",
      "dense_5 (Dense)              (None, 125)               78250     \n",
      "_________________________________________________________________\n",
      "dense_6 (Dense)              (None, 25)                3150      \n",
      "_________________________________________________________________\n",
      "dense_7 (Dense)              (None, 5)                 130       \n",
      "_________________________________________________________________\n",
      "dense_8 (Dense)              (None, 8)                 48        \n",
      "_________________________________________________________________\n",
      "activation_1 (Activation)    (None, 8)                 0         \n",
      "=================================================================\n",
      "Total params: 51,936,913\n",
      "Trainable params: 51,936,907\n",
      "Non-trainable params: 6\n",
      "_________________________________________________________________\n"
     ]
    }
   ],
   "source": [
    "questions_article_model = Sequential()\n",
    "from math import log,pow\n",
    "base = 5\n",
…
